modelo_entrenado.pth (torch, 15586 bytes, 5 tensors)

linear1.weight f4 [52, 53]
0	0x3dded2d6	0.108800575
1	0xbd8c5be6	-0.06853466
2	0xbd71eebe	-0.059065573
3	0x3e0bdc7d	0.13658328
4	0x3def192e	0.116747245
5	0x3d87da1a	0.066333964
6	0x3d26004c	0.040527627
7	0xbdd0bce6	-0.101922795
8	0x3d64ca98	0.05585727
9	0xbd6725b6	-0.05643245
10	0xbe0022db	-0.12513296
11	0x3e090027	0.13378964
12	0x3c914eb8	0.017737731
13	0x3d78d860	0.060753226
14	0xbd93760a	-0.072002485
15	0x3d3d0b64	0.04615344
16	0x3b0777c0	0.0020670742
17	0xbc8f01f4	-0.017456986
18	0xbdbd5736	-0.0924515
19	0xbde05f56	-0.10955684
20	0x3d97f756	0.074202225
21	0xbd5af510	-0.053456366
22	0xbde3fedd	-0.11132596
23	0xbccd6a98	-0.025075242
24	0xbd01c66c	-0.03168337
25	0x3d5c6a34	0.05381222
26	0xbdc05fea	-0.09393294
27	0x3d8a4554	0.067515045
28	0x3cdd8cc8	0.027044669
29	0xbd6f02c8	-0.05835226
30	0xbc046430	-0.008080527
31	0x3dd060ae	0.1017469
32	0x3d65ca00	0.056100845
33	0x3dc4023a	0.09570737
34	0xbc0faef0	-0.008769736
35	0x3d132688	0.03592542
36	0xbd3ce510	-0.04611689
37	0xbdd44dba	-0.10366388
38	0x3985f800	0.0002555251
39	0xbd9d6976	-0.07686131
40	0x3c7f4440	0.015580237
41	0x3d8393f0	0.06424701
42	0xbd8034b8	-0.06260055
43	0x3d7a99d0	0.061181843
44	0x3cb877e8	0.022518113
45	0x3dddc042	0.10827686
46	0xbdacf282	-0.08444692
47	0x3c953db8	0.018217906
48	0x3d187860	0.037224174
49	0xbd92f3f7	-0.07175439
50	0xbdcf7cb4	-0.10131207
51	0xbc85c93c	-0.016331308
52	0x3d1d39fc	0.038385376
53	0xbd9c26da	-0.07624598
54	0x3d8647a6	0.065566346
55	0xb91c9000	-0.00014930964
56	0x3d670d60	0.05640924
57	0xbcd1a2b4	-0.025590278
58	0x3d8fbfe0	0.07019019
59	0x3a6ecb00	0.0009109229
60	0x3c672690	0.014108315
61	0xbd2ac69e	-0.041693322
62	0x3db0e034	0.08636513
63	0xbdae5e2a	-0.08514054
64	0x3d31c4c4	0.04340054
65	0xbd8e9cb2	-0.06963481
66	0xbcf5cb14	-0.030004062
67	0x3cdb9f58	0.02680938
68	0xbbe90c60	-0.007112071
69	0x3db9a5ca	0.09064825
70	0x3db78e54	0.08962694
71	0x3cbcd9f0	0.02305314
72	0xbd8c4ac3	-0.06850197
73	0x3e0b89c5	0.13626774
74	0xbdfb6368	-0.122748196
75	0x3db5309a	0.08847161
76	0x3e028581	0.1274624
77	0xbc366f60	-0.011134952
78	0x3d71173c	0.05886005
79	0xbcb58008	-0.022155777
80	0xbc1410b0	-0.009037182
81	0x3cfa8aa0	0.03058368
82	0x3deec97a	0.11659522
83	0xbde1954c	-0.11014804
84	0xbd96ca0d	-0.07362757
85	0x3d31f984	0.043450847
86	0x3dc063e4	0.093940526
87	0xbb2570c0	-0.0025244206
88	0xbc968944	-0.018376
89	0xbd1fc732	-0.039008327
90	0xbe08ceff	-0.13360213
91	0x3d681bfc	0.056667313
92	0xbcb28d8c	-0.02179601
93	0xbddbc6eb	-0.107313
94	0xbe068b56	-0.1313909
95	0x3da0fd90	0.07860863
96	0x3c8f3da0	0.01748544
97	0x3d7c0988	0.061532527
98	0xbe025bd1	-0.12730338
99	0x3dbfbab8	0.09361786
100	0x3c037b60	0.00802502
101	0xbc77db18	-0.01512792
102	0x3dcf0acc	0.10109481
103	0x3c9d33f8	0.01918982
104	0x3d3b22a8	0.045687348
105	0x3dcce788	0.100050986
106	0x3d96a564	0.073557645
107	0x3d8a9374	0.06766406
108	0xbdfd3f8a	-0.12365635
109	0x38817800	6.173551e-05
110	0x3d397104	0.045273796
111	0x3ca03f98	0.019561574
112	0xbdbaa662	-0.09113766
113	0x3b2235c0	0.0024751276
114	0x3d983d62	0.07433583
115	0xbd7ee53c	-0.062230334
116	0x3ddba3d4	0.10724607
117	0x3d9fff92	0.07812418
118	0x3da2cbe6	0.07949047
119	0xbdd17198	-0.102267444
120	0x3ca52690	0.02015999
121	0x3d05fd0c	0.032712027
122	0x3da5e3d8	0.08100098
123	0xbd440868	-0.04785958
124	0x3db44764	0.08802679
125	0x3c4a35b0	0.012341902
126	0x3d323548	0.043507844
127	0xbdca1cf1	-0.098688014
128	0xbdcf7e7c	-0.10131547
129	0x3d8258ec	0.06364617
130	0xbd3e949a	-0.046528436
131	0x3d520628	0.051275402
132	0x3de0d00a	0.1097718
133	0x3b797880	0.0038066208
134	0xbd9ee91b	-0.07759305
135	0xbd4f654a	-0.050633706
136	0x3b212740	0.0024590045
137	0x3dfdc5be	0.12391232
138	0x3dd7ec9e	0.10543178
139	0x3dcf9568	0.10135919
140	0x3d7f8de0	0.062391162
141	0xbd82dcb8	-0.06389755
142	0xbd8bf447	-0.068337016
143	0xbe064df4	-0.13115674
144	0x3d807c88	0.062737525
145	0x3dae78ee	0.08519159
146	0x3e0730a9	0.13202156
147	0xbd6cd2d8	-0.057818264
148	0xbd3a76fa	-0.04552362
149	0xbded9d25	-0.116022386
150	0x3d914b60	0.07094455
151	0x3c0c1950	0.008550957
152	0xbd065e54	-0.032804802
153	0xbbfc05a0	-0.0076911002
154	0xbdd6939c	-0.10477373
155	0x3cb677e0	0.022273958
156	0xbd6442ee	-0.05572789
157	0x3bb94740	0.0056542456
158	0xbdabe909	-0.08394057
159	0x3d24e078	0.040253133
160	0x3e0599b5	0.13046916
161	0x3e08cedf	0.13360165
162	0x3df6622e	0.12030445
163	0x3ca6baf0	0.02035281
164	0xbdd3c188	-0.103396475
165	0x3de468aa	0.111527756
166	0xbdcfc20f	-0.101444356
167	0x3cb29178	0.02179788
168	0x3d7f9e28	0.06240669
169	0xbdee1309	-0.116247244
170	0x3d2427dc	0.040077075
171	0x38810800	6.1526895e-05
172	0x3daabec8	0.0833717
173	0x3d221548	0.039571077
174	0xbd79fb40	-0.061030626
175	0x3d3765c0	0.04477477
176	0xbd504a9c	-0.050852403
177	0x3ded6c06	0.115928695
178	0xbd3cc94c	-0.04609041
179	0xbda5dbfc	-0.08098599
180	0x3deca62e	0.11555134
181	0x3c83cf78	0.01609014
182	0xbdb54c84	-0.08852485
183	0xbd18bff6	-0.037292443
184	0x3cc66130	0.024216264
185	0xbcff49a4	-0.031163044
186	0x3d85cb22	0.06532885
187	0x3dc14ca4	0.09438446
188	0xbe036b19	-0.12833823
189	0xbcb227a0	-0.02174741
190	0xbdbf5470	-0.09342277
191	0xbdbe8201	-0.0930214
192	0xbc86c788	-0.016452566
193	0x3ddfd578	0.10929388
194	0xbdd9146f	-0.105996005
195	0x3dcd8cbe	0.1003661
196	0x3ddb241e	0.10700248
197	0x3d96ad20	0.0735724
198	0x3dc37500	0.095438
199	0x3e020dad	0.1270053
200	0xbccede08	-0.025252357
201	0xbe07e080	-0.13269234
202	0x3d50543c	0.050861582
203	0xbd23a75e	-0.039954536
204	0xbdecb3c0	-0.11557722
205	0xbbda3e40	-0.006660253
206	0x3dfe7502	0.12424661
207	0xbd0f87cc	-0.035041615
208	0xbd9a7010	-0.075409055
209	0x3dea16d2	0.11430134
210	0xbb9c7040	-0.0047741234
211	0x3da0017a	0.07812782
212	0x3d048a70	0.032358587
213	0x3cd17020	0.02556616
214	0x3d069808	0.032859832
215	0x3cc61168	0.024178222
216	0xbd8682dc	-0.06567928
217	0xbe04bbe1	-0.12962295
218	0xbe068eef	-0.13140462
219	0x3db1b888	0.08677775
220	0xbdab3b82	-0.083609596
221	0xbe0b84e1	-0.13624908
222	0xbb76b200	-0.0037642717
223	0x3de8aefa	0.11361499
224	0x3cc7a810	0.02437213
225	0xbda79921	-0.08183504
226	0xbd8866c1	-0.06660224
227	0xbbdd6680	-0.0067566037
228	0x3d382f58	0.044967026
229	0x3ddceb80	0.107871056
230	0x3dca8d40	0.098902225
231	0x3dba5504	0.09098247
232	0x3df0c106	0.11755566
233	0xbd2c6676	-0.042089902
234	0xbe09476a	-0.13406149
235	0x3e060cf5	0.1309088
236	0xbcdc44ac	-0.026888214
237	0xbd749908	-0.059716254
238	0xbcc16880	-0.0236094
239	0x3d0e1ca0	0.034695268
240	0xbd496c84	-0.049175754
241	0x3c8ad8b8	0.016949043
242	0xbdd7c525	-0.10535649
243	0x3d6a1a14	0.057153776
244	0xbdec6b7c	-0.115439385
245	0xbd99b996	-0.07506101
246	0x3d063a98	0.032770723
247	0x3d88a090	0.0667125
248	0x3df0a6a6	0.11750536
249	0xbcce0bd4	-0.025152124
250	0xbd18f108	-0.03733924
251	0xbe04d0a5	-0.12970217
252	0xbd161a22	-0.036646016
253	0xbdcf96b9	-0.1013617
254	0x3caa8820	0.020816863
255	0x3df988da	0.121843055

linear1.bias f4 [52]
0	0xbd93b518	-0.07212275
1	0xbcb30c64	-0.021856494
2	0x3ccb38c8	0.024807349
3	0xbdf0d628	-0.11759597
4	0x3dfb1c7a	0.12261291
5	0xbd3822a8	-0.044954926
6	0x3d8f6e32	0.0700344
7	0x3d09b8a4	0.033623353
8	0xbcf1bd9c	-0.029509358
9	0xbdb06c0a	-0.08614357
10	0xbd80269d	-0.06257365
11	0x3d5c25f8	0.053747147
12	0x3d1280dc	0.03576742
13	0xbd9f285a	-0.07771368
14	0x3e07baab	0.13254802
15	0x3c978858	0.018497631
16	0xbd75946a	-0.05995599
17	0x3cfb0ea0	0.030646622
18	0x3bbb85a0	0.0057227165
19	0x3e073faf	0.13207887
20	0x3c173630	0.009229228
21	0x3beaae60	0.0071619004
22	0xbcc86ad0	-0.024464995
23	0xbd0dfe3e	-0.034666292
24	0x3d249d68	0.040189177
25	0xbdbd6fe8	-0.0924986
26	0x3dc2c632	0.09510459
27	0x3ca95458	0.020670101
28	0x3dd95a1a	0.10612889
29	0x3db07954	0.086168915
30	0xbc5ca988	-0.013468154
31	0x3da67996	0.081286594
32	0xbe09b722	-0.13448766
33	0xbd947069	-0.07248003
34	0xbda20c2d	-0.079124786
35	0xb980da00	-0.00024576485
36	0x3caff980	0.021481276
37	0xbdc53674	-0.09629527
38	0xbdc4842a	-0.09595521
39	0xbdccbedc	-0.09997341
40	0xbd40830c	-0.046999976
41	0x3cc89e78	0.024489626
42	0xbd235f74	-0.039885953
43	0x3e0979a1	0.13425304
44	0xbddb6e7c	-0.107144326
45	0xbda34864	-0.07972792
46	0xbd2a0cdc	-0.04151617
47	0xbd8e6d45	-0.06954435
48	0xbdb6c242	-0.089237705
49	0xbc0e9540	-0.008702576
50	0xbdacee54	-0.08443895
51	0xbd90b9a5	-0.07066659

linear2.weight f4 [8, 52]
0	0xbcaadc20	-0.020856917
1	0xbdda2225	-0.10651044
2	0x3dcd4f3a	0.10024877
3	0xbde54a43	-0.11195805
4	0xbe0b0bed	-0.13578768
5	0xbdd8d992	-0.10588373
6	0xbd135a82	-0.035974987
7	0xbdbc7d3b	-0.09203573
8	0xbe0ae3b6	-0.13563427
9	0x3e0af1b9	0.13568772
10	0x3d8ef7d6	0.06980865
11	0xbd366b66	-0.044536017
12	0xbe0d860d	-0.13820668
13	0xbd3a151e	-0.045430295
14	0x3dcff8ca	0.101548746
15	0x3d82ee82	0.06393148
16	0xbdc0eb62	-0.09419896
17	0x3de0f1cc	0.10983619
18	0x3d67fcd4	0.0566376
19	0x3dd6ea4c	0.10493907
20	0xbd8af20c	-0.06784448
21	0x3c9f3e78	0.019438967
22	0xbc343b70	-0.011000499
23	0xbcaaf948	-0.02087082
24	0xbbadf040	-0.005308181
25	0xbdb980ea	-0.090577915
26	0x3dca3608	0.09873587
27	0x3da87954	0.082262665
28	0x3df4f402	0.11960603
29	0x3c957e48	0.018248692
30	0x3d8c734c	0.06857929
31	0xbbc9f1e0	-0.006162867
32	0x3dce8022	0.10083033
33	0x3d841fc4	0.06451371
34	0x3dc32ec6	0.09530406
35	0x3cef17c0	0.02918613
36	0xbcb49a78	-0.022046313
37	0xbdb8b196	-0.09018247
38	0x3d309410	0.043109953
39	0x3dfb518a	0.12271412
40	0xbceef764	-0.0291707
41	0x3c308910	0.010774866
42	0x3d9013a4	0.07034996
43	0x3cbf9750	0.023387581
44	0x3d9ea06c	0.07745442
45	0xbdbd7cbe	-0.09252308
46	0x3dd627ea	0.10456832
47	0x3de8e56a	0.11371882
48	0xbd34c4aa	-0.044132866
49	0x3d8fadaa	0.07015546
50	0x3dec9eda	0.11553736
51	0xbc429230	-0.011875674
52	0x3cbbe100	0.022934437
53	0xbdcd4706	-0.10023312
54	0xbd8e7b8b	-0.06957158
55	0xbcd97d20	-0.026548922
56	0x3cd68638	0.026187047
57	0xbce78bec	-0.028264962
58	0x3d81961a	0.06327458
59	0xbcfd1d58	-0.030897781
60	0xbdf4c6a2	-0.11951949
61	0xbd190300	-0.037356377
62	0x3e028165	0.12744673
63	0x3cd62df0	0.026144952
64	0xbd944710	-0.072401166
65	0x3e02a113	0.12756757
66	0xbc6c3720	-0.01441744
67	0x3d731f68	0.059356123
68	0xbd1171d2	-0.035508938
69	0x3d9b55c8	0.07584721
70	0x3dfb5e2a	0.1227382
71	0xbb66f600	-0.0035241842
72	0xbd5a4b2a	-0.05329434
73	0x3d5fb1d0	0.054612935
74	0xbc4ed410	-0.012623802
75	0x3d47e6ec	0.04880421
76	0x3de2d6ec	0.11076149
77	0xbda08ecc	-0.07839736
78	0x3da21778	0.079146326
79	0xba5d3900	-0.00084389746
80	0x3d2658cc	0.040612027
81	0x3dbf6a6a	0.09346469
82	0xbdbc739c	-0.09201738
83	0x3db56158	0.088564575
84	0x3d3243d0	0.043521702
85	0xbe041570	-0.12898803
86	0xbd3de7c8	-0.046363622
87	0xbe0cc4e5	-0.13746984
88	0xbe0c48d4	-0.13699657
89	0x3d843fa8	0.06457454
90	0xbe0963c3	-0.13416962
91	0x3d956078	0.072937906
92	0x3dc869b2	0.09785785
93	0x3cc4a1c8	0.024002925
94	0xbd0bf6c6	-0.03417089
95	0x3ddc6bc6	0.10762744
96	0x3c14b370	0.009075984
97	0x3db5fbc0	0.08885908
98	0xbdc51718	-0.096235454
99	0x3dfce94e	0.12349187
100	0x3db326c2	0.08747627
101	0xbd010b4a	-0.031504907
102	0x3dcf798e	0.101306066
103	0x3d849a06	0.0647469
104	0xbc6fd1a8	-0.014637388
105	0x3dec21be	0.11529873
106	0x3c4444b0	0.011979267
107	0xbd103fa0	-0.035216928
108	0xbe065a90	-0.13120484
109	0x3cc59e68	0.024123386
110	0x3e085d23	0.13316779
111	0xbcc69e6c	-0.024245463
112	0x3db157f8	0.08659357
113	0xbdc1e1bc	-0.094668835
114	0xbd442d0c	-0.047894523
115	0xbd6c8f14	-0.057753637
116	0xbd94f0ea	-0.07272513
117	0x3cf81a18	0.03028588
118	0x3d917814	0.07102981
119	0x3d11016c	0.035401747
120	0x3d172684	0.036901966
121	0xbc237320	-0.009976178
122	0x3d90e26e	0.07074438
123	0xbd0db38e	-0.034595065
124	0x3de570b2	0.112031356
125	0xbd499d30	-0.04922217
126	0x3ce16858	0.027515575
127	0xbd16d3f4	-0.036823228
128	0x3dcc2866	0.09968643
129	0x3d993de8	0.07482511
130	0x3dda1374	0.10648242
131	0x3e05f111	0.13080241
132	0xbdd142f6	-0.1021785
133	0x3dc2f41a	0.09519215
134	0x3dc2cf2e	0.09512173
135	0xbd98cf52	-0.07461418
136	0x3de79882	0.113083854
137	0x3e083c29	0.133042
138	0xbca49f84	-0.020095594
139	0xbcd9038c	-0.02649095
140	0x3dcff4be	0.10154103
141	0x3de375b8	0.111064374
142	0x3d9d92f0	0.07694042
143	0xbd82ab3b	-0.06380316
144	0xbd1accd6	-0.037793003
145	0xbb1546c0	-0.0022777766
146	0xbc908ac4	-0.017644294
147	0xbd6d43b0	-0.05792588
148	0xbe05cd29	-0.13066544
149	0x3deb0102	0.114748016
150	0x3d02eed0	0.03196603
151	0xbdf88536	-0.12134783
152	0x3dd94204	0.106082946
153	0xbd276faa	-0.040877976
154	0xbd6509b8	-0.05591747
155	0xbc5ca610	-0.013467327
156	0xbe0296fb	-0.12752907
157	0xbdd24ebe	-0.10268925
158	0xbdb128f7	-0.086503915
159	0xbdee9f71	-0.11651505
160	0xbda44d28	-0.08022529
161	0xbdbed1ea	-0.09317382
162	0x3d089d3c	0.033353075
163	0xbd889b94	-0.06670299
164	0x3db64c06	0.08901219
165	0x3d80440a	0.062629774
166	0xbd2f33be	-0.042773955
167	0xbd5b3b8c	-0.053523585
168	0xbdc580e1	-0.09643722
169	0xbcdb8bc0	-0.026800036
170	0x3d449e84	0.048002735
171	0xbd9d9698	-0.07694739
172	0x3e05777f	0.13033865
173	0xbd8c3949	-0.06846864
174	0xbd886847	-0.06660514
175	0xbdc84721	-0.09779192
176	0xbdbdae8a	-0.09261806
177	0x3c4d3a20	0.012526065
178	0xbc810bd4	-0.01575271
179	0xbd18528a	-0.03718809
180	0xbd87bb22	-0.066274896
181	0x3df0b252	0.11752762
182	0x3dfbf17a	0.123019174
183	0xbdbfec2a	-0.093712166
184	0x3e0c5119	0.13702811
185	0xbded670d	-0.11591921
186	0xbd980a79	-0.074238725
187	0xbdaefe65	-0.08544616
188	0x3dd9a7f2	0.10627736
189	0xbdbb2396	-0.09137647
190	0x3cca7468	0.02471371
191	0xbdd72f85	-0.105071105
192	0x3d483d6c	0.0488867
193	0xbd9119aa	-0.07084973
194	0xbcf3a02c	-0.029739462
195	0x3da2dd4a	0.07952364
196	0x3da522fe	0.08063315
197	0xbcdfe2e4	-0.02732987
198	0xbda7ceca	-0.08193739
199	0xbd4f5fc6	-0.050628446
200	0xbda11e26	-0.078670785
201	0x3dca52e6	0.09879093
202	0x39b0ec00	0.0003374517
203	0x3d99af68	0.07504159
204	0xbdf21983	-0.11821272
205	0xbb91ce60	-0.0044496506
206	0x3e01bdbb	0.12670033
207	0xbc04c010	-0.008102432
208	0xbd07bc30	-0.033138454
209	0x3d473930	0.048638523
210	0x3d9cd42e	0.076576576
211	0xbe046cec	-0.12932175
212	0xbd58aecc	-0.052901074
213	0xbe071473	-0.13191395
214	0xbe0204d7	-0.12697159
215	0xbc7b81f0	-0.015350804
216	0x3d4c1a18	0.049829572
217	0x3ddc795c	0.10765335
218	0xbe070fc0	-0.13189602
219	0xbe0d0e72	-0.13775042
220	0xbd9f5452	-0.07779755
221	0x3c8a5940	0.01688826
222	0x3d76b994	0.060235575
223	0xbd1b45de	-0.037908427
224	0x3d6241e8	0.055238634
225	0x3d6750cc	0.05647354
226	0x3cbd70d0	0.023125082
227	0xba2bde00	-0.0006556213
228	0xbdd494bc	-0.10379931
229	0xbdaf0476	-0.08545773
230	0x3daa8d72	0.0832776
231	0x3d3df440	0.046375513
232	0xbd81988d	-0.06327925
233	0xbcfa20dc	-0.030533247
234	0xbd07ae56	-0.033125244
235	0x3daa2fb6	0.083098814
236	0xbd83295f	-0.06404375
237	0xbd4c2eca	-0.04984931
238	0x3def3dde	0.11681722
239	0x3d87faee	0.06639658
240	0xbda3591e	-0.07975982
241	0x3d646b68	0.055766493
242	0xbd36c0f0	-0.044617593
243	0x3d888982	0.066668525
244	0xbc95ad94	-0.018271245
245	0xbd9f833a	-0.07788701
246	0x3dd34b66	0.103171155
247	0xbdf1c643	-0.118053935
248	0x3dfff15a	0.12497206
249	0xbd825a59	-0.06364889
250	0xbde81e02	-0.113338485
251	0xbd934add	-0.071920134
252	0xbd6366da	-0.05551801
253	0x3de5208a	0.11187847
254	0x3c654940	0.013994515
255	0xbdf4ea1e	-0.11958717

linear2.bias f4 [8]
0	0x3cbef300	0.02330923
1	0x3d71a2fc	0.058993325
2	0x3defa886	0.11702065
3	0xbdbd09fc	-0.0923042
4	0x3dbd13b6	0.09232275
5	0x3d30f9a0	0.04320681
6	0x3d8f2ff0	0.06991565
7	0xbe04e0b2	-0.1297634

end.weight f4 [1, 8]
0	0xbdce7178	-0.10080236
1	0xbe282f7a	-0.16424361
2	0xbe8d8730	-0.27642202
3	0xbcc90930	-0.024540514
4	0xbd444390	-0.047915995
5	0x3ea24003	0.31689462
6	0xbead1a84	-0.33809292
7	0xbe0988cd	-0.13431092
